…
tps://localhost:8080/"},"id":"uVf-G8C4izPY","executionInfo":{"status":"ok","timestamp":1701644748232,"user_tz":420,"elapsed":2926,"user":{"displayName":"Pranjal Pathak","userId":"09921988934029714722"}},"outputId":"933be487-6966-4518-c0f9-b266e280a162"},"execution_count":22,"outputs":[{"output_type":"stream","name":"stdout","text":["Model: \"sequential\"\n","_________________________________________________________________\n"," Layer (type)                Output Shape              Param #   \n","=================================================================\n"," conv2d (Conv2D)             (None, 222, 222, 128)     3584      \n","                                                                 \n"," max_pooling2d (MaxPooling2  (None, 111, 111, 128)     0         \n"," D)                                                              \n","                                                                 \n"," conv2d_1 (Conv2D)           (None, 109, 109, 64)      73792     \n","                                                                 \n"," max_pooling2d_1 (MaxPoolin  (None, 54, 54, 64)        0         \n"," g2D)                                                            \n","                                                                 \n"," dropout (Dropout)           (None, 54, 54, 64)        0         \n","                                                                 \n"," conv2d_2 (Conv2D)           (None, 52, 52, 64)        36928     \n","                                                                 \n"," max_pooling2d_2 (MaxPoolin  (None, 26, 26, 64)        0         \n"," g2D)                                                            \n","                                                                 \n"," conv2d_3 (Conv2D)           (None, 24, 24, 64)        36928     \n","                                                                 \n"," max_pooling2d_3 (MaxPoolin  (None, 12, 12, 64)        0         \n"," g2D)                                                            \n","                                                                 \n"," flatten (Flatten)           (None, 9216)              0         \n","                                                                 \n"," dropout_1 (Dropout)         (None, 9216)              0         \n","                                                                 \n"," dense (Dense)               (None, 512)               4719104   \n","                                                                 \n"," dense_1 (Dense)             (None, 52)                26676     \n","                                                                 \n","=================================================================\n","Total params: 4897012 (18.68 MB)\n","Trainable params: 4897012 (18.68 MB)\n","Non-trainable params: 0 (0.00 Byte)\n","_________________________________________________________________\n"]}]},{"cell_type":"code","source":["## TRAINING\n","\n","# Load 
…
